Cybersickness Project 3D Sim/Assets/Models/model_fixed_2.onnx (onnx, 997891 bytes, 43 tensors)

const_fold_opt__1636 f4 [1, 64, 1]
000000 63 ed 2f be 4f ce 35 bd 05 e0 86 be 04 4d 15 be
       -0.171804 -0.044386204 -0.26342788 -0.1458016
000010 8f 66 99 be 67 fd 4b 3c 73 bd 22 be d4 fc 96 be
       -0.29961058 0.012450553 -0.15892582 -0.29489768
000020 0d 60 5f bd 87 15 3c be 64 48 85 be b2 f3 83 be
       -0.05453496 -0.18367587 -0.26031792 -0.25771862
000030 7e 8c 23 be 31 29 7f bd 97 7c e4 be cb 10 9e be
       -0.15971562 -0.062295143 -0.44626305 -0.30872187
000040 78 96 80 3e ae f3 86 be 4d f4 1e be 42 0d b9 be
       0.251148 -0.26357788 -0.15522881 -0.36142927
000050 96 3f 71 3d af 90 a6 be f3 65 14 be 0e 0e 5a be
       0.05889853 -0.3253226 -0.14492016 -0.21294424
000060 00 7c 3a be ce ae 24 be fc 1e ce bd 6c a0 be be
       -0.18211365 -0.16082308 -0.100645036 -0.37231767
000070 ff 0d b3 be 77 2c b3 bd bd b0 55 be bd fa 57 bd
       -0.34971616 -0.08748715 -0.20868202 -0.052729357
000080 92 b7 a5 bd 63 d8 ac be 83 51 9c bc 07 21 6d be
       -0.08091654 -0.3375884 -0.019081837 -0.2315713
000090 ba 41 62 be a2 2a ac bc 6f 2c 0e be fe 82 8c 3d
       -0.22095385 -0.021016423 -0.13884138 0.06860922
0000a0 46 51 09 bc 72 ce 0d 3e 75 58 d5 bb a0 e4 86 be
       -0.0083811935 0.13848284 -0.006510789 -0.26346302
0000b0 74 be bf bb 95 8a fb bd 2d 87 90 be 00 c5 b0 bd
       -0.005851561 -0.12282292 -0.2822813 -0.08631325
0000c0 ac d5 8f be f6 9e 9a bc bc a6 35 3d 50 e6 a2 be
       -0.28092706 -0.018874627 0.044348463 -0.3181634
0000d0 c4 8c a7 3c 21 8a 88 be ed 6b 5c be 5c 59 40 3e
       0.020452864 -0.26667884 -0.21525545 0.18784088
0000e0 c7 83 8e be 7a 6e 20 be e6 a8 d5 bd 79 40 2b be
       -0.27834913 -0.15667143 -0.104326054 -0.16723813
0000f0 2e b9 5a bd 41 69 de 3d f5 85 89 bd a2 cd 84 bd
       -0.053399257 0.10859919 -0.067150034 -0.06484534

const_fold_opt__1634 f4 [1, 64, 1]
000000 d1 1e 00 3e bb 86 98 bd 88 9a 2c be fc 2e 48 3c
       0.12511756 -0.07447573 -0.16855824 0.012218233
000010 3f 80 8c 3c cc 10 ce bc ad 1b 5b bc db b9 44 3d
       0.017150996 -0.025154494 -0.013373298 0.048028808
000020 e0 2b f6 3d d7 d1 e6 bd c0 24 b0 bc bb 14 41 be
       0.12020087 -0.112704925 -0.021501899 -0.18855564
000030 61 84 06 be 5d f3 fe bd 0a 1c 88 3d b9 3a 1a 3c
       -0.13136436 -0.124487616 0.06645973 0.009413415
000040 ff 75 05 be 14 d5 85 bd 4f 58 95 3d f5 93 2e 3c
       -0.13033293 -0.06534782 0.07292234 0.010655393
000050 8e 22 ed bc ac 0a 13 be 60 9b 5f bd ff a1 04 be
       -0.028947141 -0.1435954 -0.054591537 -0.12952422
000060 1a 6d 84 bd 07 99 a2 3c 9b ca c9 bd 64 68 cc 3d
       -0.06466122 0.01984836 -0.09853097 0.099808484
000070 9f 1d d0 bd 4c 61 45 3e 0f b0 1e be 11 17 0e 3d
       -0.101619 0.19275397 -0.15496849 0.034689967
000080 2c 6a a0 bd a6 c0 c9 bd 51 dd 85 3c 20 32 c7 bd
       -0.07832751 -0.09851198 0.016340883 -0.097263575
000090 d8 b1 b6 bd c7 5c 0a be db 31 a2 3d 96 f4 3c 3d
       -0.0892064 -0.13511954 0.079196654 0.046131693
0000a0 64 67 62 3c c0 36 10 be 31 2a 91 3d 56 5c 4b bd
       0.013818596 -0.14083385 0.070881255 -0.049648605
0000b0 3a 04 b6 bd 1d 58 63 be 9c 68 26 3d 22 38 2f 3c
       -0.08887525 -0.22201581 0.040627107 0.010694535
0000c0 16 87 cb bc 70 af 89 bd 36 d8 ff 3d 4d 6e 52 be
       -0.024844687 -0.06722915 0.12492411 -0.20549889
0000d0 8e 4c 20 be c8 7f a4 bd d6 95 d1 bc dc a8 4f bd
       -0.15654203 -0.08032185 -0.025584143 -0.050698146
0000e0 a0 e5 cd 3c d8 ed fa bd ba c0 02 3e 91 10 df ba
       0.025133908 -0.12252396 0.12768832 -0.0017018487
0000f0 7a 97 f9 bc 92 76 91 3d 81 63 32 be 7d 20 e0 bd
       -0.030467737 0.071026936 -0.1742077 -0.10943697

const_fold_opt__1633 f4 [1, 64, 1]
000000 ee dd b2 bd b5 cd 7e be 9e cd d2 be 83 de 74 bd
       -0.08733736 -0.24883159 -0.41172498 -0.059782516
000010 56 57 13 be 71 db 09 3e c9 77 76 be 3b 99 1b be
       -0.14388785 0.13462617 -0.24069132 -0.15195172
000020 95 d8 3a be 4a 81 2a be 38 c0 16 be 7d c9 8f bb
       -0.18246682 -0.16650882 -0.14721763 -0.004388033
000030 76 a4 80 bd 8c b6 21 bd 6f 8d d2 bd e1 0e e8 bd
       -0.062813684 -0.03948073 -0.102808826 -0.11330963
000040 c1 2b 2f 3e 98 c2 18 be 88 d7 26 be 3e a1 ac bc
       0.17106535 -0.14917982 -0.16293156 -0.02107298
000050 34 b0 8f bd a6 17 11 be 94 9e 00 3e cf 39 df bd
       -0.0701603 -0.14169177 0.12560493 -0.10899698
000060 96 fb 48 bd e0 f0 ad bd 72 94 0b be 25 c8 d7 3a
       -0.049068056 -0.08493209 -0.13630846 0.0016462846
000070 d3 b0 d2 bc ff 1d 92 be b1 a4 50 be 57 c6 3c bd
       -0.025719082 -0.2853851 -0.20375325 -0.04608759
000080 bc eb 80 bd c7 1f cc bd 4b 7a e5 be 4c dd 2f be
       -0.06294963 -0.099669985 -0.44819865 -0.17174262
000090 48 5e 8c be 3f 45 c4 3d f3 ac 39 be ff 9d a9 3a
       -0.2741568 0.0958352 -0.18132381 0.0012940763
0000a0 04 b3 32 be 94 03 95 bb 2e 0e 0b 3d c9 14 49 bd
       -0.17451102 -0.0045475457 0.03394907 -0.049092088
0000b0 ed e6 0a be 99 9e ad bd 2d 99 58 bd 94 1c a0 3d
       -0.13564654 -0.08477516 -0.052880455 0.07817951
0000c0 2c 2b 60 bc 46 ac 99 be df e5 b0 bd 6f 2c 52 bd
       -0.013682168 -0.30014247 -0.086375944 -0.051311906
0000d0 66 c2 34 be ce 0f 20 be 0d 5d 8f bd 64 46 70 3c
       -0.17652282 -0.15631029 -0.0700017 0.01466522
0000e0 96 9a b8 3d af 5f 3d bd e1 f7 a1 be ff d0 d1 bc
       0.0901386 -0.04623383 -0.3163443 -0.025612352
0000f0 7c bc da 3c 35 c5 51 3d 2d 65 85 bd d8 e9 ee bd
       0.026701204 0.051213462 -0.065134384 -0.11665696

const_fold_opt__1632 f4 [1, 64, 1]
000000 d0 15 cf be f6 b2 28 be 56 6a a6 be 85 bc 21 bd
       -0.4044633 -0.16474518 -0.32503003 -0.039486427
000010 c4 bf 76 be 0e cf 93 bd 4b b2 5f bb 0c e8 1d be
       -0.2409659 -0.07217227 -0.003413337 -0.1542055
000020 05 00 75 be 57 64 5c be 4e d3 97 be 2f 68 21 be
       -0.23925789 -0.21522652 -0.296534 -0.15762399
000030 a6 aa a3 bb 18 5a 82 be c7 ce 88 be 93 89 a9 be
       -0.004994708 -0.2545936 -0.2672026 -0.33112773
000040 42 a9 68 3e 37 12 1a be 7c 13 3b bb 41 de 9e be
       0.22720817 -0.15046011 -0.002854555 -0.3102894
000050 fe 51 4d 3c c4 bd 2a be a7 5e 68 3c f4 04 8c be
       0.0125317555 -0.16673952 0.014182723 -0.2734753
000060 5c f7 6b 3d eb 74 57 be 4e 65 01 bd f7 74 66 be
       0.057608947 -0.21040694 -0.031590752 -0.22505556
000070 50 e0 15 bd cc 88 6b be 9e 2b cc 3d 4b 60 eb bd
       -0.036590874 -0.23001403 0.09969257 -0.11492976
000080 ef 71 2a be c7 fe 8d be 5a 49 dd bd 55 96 b2 be
       -0.16645025 -0.27733442 -0.10805006 -0.3488032
000090 1b fe 8f be cc 4b bc 3d f9 f3 78 be 44 ea 9b 3d
       -0.28123555 0.091941446 -0.24311818 0.07613042
0000a0 6a 69 4c be 4f 61 f7 3d 2b 6f 9a bd 97 f4 9b bd
       -0.19962087 0.12079107 -0.07540735 -0.07615011
0000b0 56 d4 81 be 70 3e 2f be 13 c4 c1 be 55 3e 5c be
       -0.25357312 -0.17113662 -0.37844905 -0.21508153
0000c0 da 8c 21 be a8 36 35 bd d3 a9 1d bd 45 71 9c be
       -0.15776387 -0.044241577 -0.038492035 -0.30555168
0000d0 ed 97 7a be f6 e9 46 be 7a 1a 5b be 89 ce fd 3d
       -0.24472018 -0.19425187 -0.21396819 0.12392909
0000e0 aa 4e 77 3d d4 df 94 be 66 bb a5 be 3e 92 31 be
       0.060377754 -0.29077017 -0.32369536 -0.17340943
0000f0 4c 67 50 be c1 84 90 3c a6 f3 51 be 5f e7 89 be
       -0.20351905 0.017641427 -0.20503101 -0.26934335

const_fold_opt__1631 f4 [1, 64, 1]
000000 b3 fd b4 be a7 9c a7 be c8 44 9f be 68 b1 10 be
       -0.35349807 -0.32736704 -0.31107163 -0.14130175
000010 c8 06 be be cb ff b4 bd 0d 38 9e be 64 d8 c1 be
       -0.3711455 -0.08837851 -0.30902138 -0.37860405
000020 e2 41 3e be c0 bb bf be b0 f0 87 be 5d df a6 be
       -0.1857982 -0.3744793 -0.26550817 -0.32592288
000030 b9 14 7f be d2 e3 6b be 00 6c ee be fa 2e cc be
       -0.24910249 -0.23036125 -0.46566772 -0.3987959
000040 bf 3c d2 bd 54 8f c1 be c9 e4 a2 be 13 0a ac bd
       -0.10265493 -0.37804663 -0.31815174 -0.08400359
000050 b9 a3 de be 56 69 88 be 4b 75 a3 be 9a 4d 8f be
       -0.43484285 -0.26642865 -0.31925425 -0.27988893
000060 e2 6b 06 bf 98 91 bf be 29 71 82 be ae 60 8c be
       -0.52508366 -0.37415767 -0.2547696 -0.2741751
000070 b9 f1 00 bf 85 e6 0c bf 7e 47 2e be 1b 73 d6 be
       -0.5036884 -0.55039245 -0.1701946 -0.41884694
000080 fd b9 dd be 04 12 8e be 84 01 36 be 23 c0 c9 be
       -0.4330596 -0.2774812 -0.17774016 -0.394044
000090 16 80 45 be 23 15 3a ba aa a6 8e be 6c 08 a9 bd
       -0.19287142 -0.00070984865 -0.2786153 -0.082535595
0000a0 d2 2c a3 be 4e e8 b3 be d5 f4 b6 be de b5 68 be
       -0.31870133 -0.35138172 -0.35733667 -0.22725627
0000b0 99 eb 7b be 6b 5c d9 be 2a 96 bc be b8 33 70 be
       -0.24601592 -0.42453322 -0.36833316 -0.23457229
0000c0 3b cf 2a be 45 02 f9 be 96 a0 5e be a6 54 fb be
       -0.16680615 -0.48634544 -0.21740946 -0.4908802
0000d0 18 00 b5 be bc 00 99 be e6 25 c1 be 89 b4 a0 be
       -0.35351634 -0.29883373 -0.37724227 -0.31387737
0000e0 e8 1f 8c be a5 fd 46 be a9 00 10 bf 30 40 76 be
       -0.27368093 -0.19432695 -0.5625101 -0.24047923
0000f0 ef 65 e1 be 41 6e 9a be 09 8f 14 bf 5d c3 fc be
       -0.44023082 -0.30162242 -0.58030754 -0.493678

const_fold_opt__1625 f4 [1, 64, 1]
000000 d7 08 e6 bd 9b 87 06 bd cc 63 75 bd 3f 46 eb bc
       -0.11232155 -0.032844167 -0.059909627 -0.02872002
000010 a9 8f a3 bd 8f 34 f3 bc c4 62 f2 bd 6e 1e 98 3d
       -0.079863854 -0.029688148 -0.11835244 0.07427679
000020 00 ac 90 bc ab 7d 7e 3c 7e bc f6 bd e5 68 81 3c
       -0.017660141 0.015532891 -0.12047671 0.015797088
000030 d5 2d ca bd 68 c5 4c bd 9d 31 af bd af 91 b4 ba
       -0.09872023 -0.04999295 -0.08554385 -0.0013776327
000040 fe 63 a5 3d 19 68 c3 bc fa 8e 12 be 3a 6e 4e be
       0.080757126 -0.023853349 -0.14312354 -0.20159236
000050 e3 76 04 be 9b ad 9e bd 82 0b a6 bd ed 2c da bd
       -0.12935977 -0.07747956 -0.08107664 -0.106531
000060 3e 90 b7 bd a8 8d d9 bd 0e 4b 92 bd e6 a9 5a be
       -0.08963059 -0.10622722 -0.07143222 -0.21353874
000070 05 ff c2 bd 8a 5d 7a bd b8 d5 e9 bb 73 d7 cb bd
       -0.09521297 -0.061124362 -0.007136073 -0.09953203
000080 b6 24 8a bd e8 4e b6 bc 03 6b 6a be fb ed 98 bc
       -0.06745283 -0.022254422 -0.22892384 -0.018668165
000090 1d 60 a0 3d 1d 26 47 ba 13 b6 9c 3d 22 09 1d 3d
       0.07830832 -0.0007596927 0.076519154 0.038338788
0000a0 4e 81 df 3c b0 a5 bd bd fe 85 ca bd 8f 69 75 3d
       0.027283337 -0.09260118 -0.09888838 0.05991512
0000b0 6c 15 bf bd a3 44 d2 bd d7 e2 a7 bd b5 ef cb bd
       -0.09330258 -0.10266998 -0.08197563 -0.0995783
0000c0 89 9e 3a bd 31 9c 9e bd b5 7a 06 be e3 53 2c 3d
       -0.045561347 -0.07744635 -0.13132747 0.042072188
0000d0 8e ae 83 bb 13 2f d4 bd db 7e 76 bd e1 1b c1 be
       -0.0040186113 -0.10360541 -0.060179573 -0.37716582
0000e0 b9 4d 0a 3d 20 95 39 be f0 44 65 be 37 d1 2b be
       0.03376553 -0.18123293 -0.22389579 -0.16779028
0000f0 e1 e7 c1 bd 68 6a 0d bb e2 d6 17 3d fb 93 d2 bc
       -0.094680555 -0.0021578316 0.037070163 -0.025705328

const_fold_opt__1624 f4 [1, 64, 1]
000000 50 f7 49 be 93 16 fd bd f4 be 6e bd 8f f5 8f 3d
       -0.19723248 -0.12357821 -0.058287576 0.070292585
000010 63 d4 08 3e 6a 90 77 3c 35 c8 0d 3b 16 eb 2c be
       0.13362269 0.015110115 0.0021634225 -0.16886553
000020 23 7d 14 3d dc e3 1a 3d 8e c9 f3 bc 48 1f f5 bc
       0.036252152 0.03781496 -0.029759195 -0.029922143
000030 5e fb d7 bd 7e c2 39 3e db 84 19 bd cf e9 0f 3c
       -0.10545991 0.18140599 -0.037480216 0.008783772
000040 27 b2 03 be 48 e3 f9 3a 4e 38 a4 bd 13 6c 81 bd
       -0.12860928 0.0019064927 -0.08018552 -0.06319442
000050 2d 02 4c 3c fe ab 7b 3d 80 11 1a 3d 9d 14 53 bd
       0.012451691 0.06144332 0.037614346 -0.05153333
000060 5f 87 77 bc d9 41 cc 3b c9 61 3b 3e e1 cb 40 bd
       -0.015107959 0.0062334356 0.18299021 -0.047069434
000070 d7 6e b3 bc b6 a8 07 be 1e 00 9e 3c 15 c5 0f be
       -0.021903438 -0.13247952 0.019287165 -0.14040025
000080 dc f2 a0 be c6 81 4a be 5b b7 e7 bc f7 61 2e 3e
       -0.31435287 -0.19776067 -0.028285673 0.17029558
000090 ce f1 d2 3d 54 e7 0f ba 30 19 4e be a8 48 64 bd
       0.10300027 -0.00054894877 -0.20126796 -0.055733353
0000a0 39 a9 95 bc 92 14 d4 3d bc a2 0c 3e a8 5c 9b bd
       -0.018269168 0.10355486 0.13733953 -0.07586032
0000b0 50 9c 06 3d f7 8a 78 3d 0f d8 a4 bd 7a 19 80 bd
       0.032863915 0.060679402 -0.080490224 -0.06254859
0000c0 12 41 31 bd 14 07 27 bc 20 c4 51 bd 6c 10 a1 bd
       -0.043274947 -0.010194559 -0.05121243 -0.0786446
0000d0 01 e8 5b 3d c9 53 07 be 2d 1e bb bc 9e 27 6d bd
       0.053688053 -0.13215555 -0.022841537 -0.05789911
0000e0 f0 b1 26 3e 0e 0f 8d 3d cc 77 64 bc aa a9 20 bc
       0.16278815 0.06887637 -0.013944577 -0.009806076
0000f0 7e b7 7c 3e 6c 6e 1b bd f4 02 a8 3c e2 7f 99 bd
       0.24679372 -0.037947103 0.02050922 -0.07495095

const_fold_opt__1621 f4 [1, 64, 1]
000000 2e 85 a2 bd d8 98 3c 3c 50 15 97 bd a5 c5 fa 3c
       -0.07935558 0.01151105 -0.07377112 0.030611822
000010 13 66 c6 b8 17 d8 47 be a0 15 43 be b2 56 54 bd
       -9.4603885e-05 -0.19516025 -0.19051218 -0.05184049
000020 a9 94 cc bd 0d 87 3d 3c af 5c 1c be 8b bd fe 3c
       -0.09989292 0.011567843 -0.15269731 0.03109624
000030 03 fd a7 bd 53 e3 ac bd 14 3a a2 bd 1f 48 07 bd
       -0.08202555 -0.08441796 -0.07921234 -0.033027764
000040 ff 3d 31 3d a9 e3 3d be da 40 87 bd dd 28 e2 bd
       0.043272015 -0.18543877 -0.06604166 -0.1104295
000050 5b 86 e4 bd 1e 7d 9f 3c 21 95 69 be 50 ef 0c be
       -0.11158439 0.01946884 -0.22810794 -0.13763165
000060 c4 cd 94 3b 55 6e 13 be 27 f7 33 bd 22 46 10 3d
       0.0045411307 -0.14397557 -0.043936875 0.035223134
000070 65 31 89 bd 12 7d aa bd df ed 14 bd 01 fe 92 3d
       -0.066988744 -0.083246365 -0.036359664 0.07177354
000080 83 51 33 be 04 5d 94 3d 9f 86 a3 3d de d8 c7 bd
       -0.17511563 0.07244304 0.07984661 -0.09758161
000090 62 01 6b 3c 80 14 05 be 9d 95 d9 bd 97 a8 b3 bd
       0.014343591 -0.12996101 -0.106242396 -0.0877239
0000a0 0c 96 97 bd 9b f7 6a be cc fa fb bd b4 f7 c9 bd
       -0.07401666 -0.22946016 -0.12303695 -0.09861699
0000b0 d1 77 b7 bd 47 3f ab bd 8a bd 01 bd b2 22 ec bc
       -0.089584 -0.083616786 -0.0316749 -0.028825138
0000c0 fb 25 47 3d 10 bb 61 bd 83 22 01 be ff f8 84 3d
       0.048620205 -0.055110037 -0.12610821 0.06492805
0000d0 c4 a0 60 bd 15 20 ff bd f2 28 5c bc ec da de bd
       -0.054840818 -0.12457291 -0.0134374965 -0.108816
0000e0 a6 6a c0 bc 31 28 9e bd f2 3e d2 bd 6b 65 28 bc
       -0.023488354 -0.0772251 -0.10265912 -0.010278086
0000f0 b9 08 42 bd c9 12 0d be 45 81 5c 3d cb 9f 87 bd
       -0.0473716 -0.13776697 0.05383422 -0.06622275

const_fold_opt__1614 f4 [1, 64, 1]
000000 42 fe 50 3e 8c 97 22 3c bc 28 e0 3d b5 3f 80 3e
       0.20409492 0.009923827 0.109452695 0.25048605
000010 be 80 1b bb 74 89 3a 3e ec 6e e0 3d df 77 81 be
       -0.002372786 0.18216497 0.10958657 -0.25286767
000020 2a f7 95 be 66 8d 5a 3e 93 a4 82 be 72 f4 b4 3e
       -0.29290134 0.21343002 -0.25516185 0.35342747
000030 47 63 97 3d 5f 49 a5 bd ab 99 1e ba 7d d3 2e 3e
       0.073919825 -0.08070635 -0.000605012 0.17072864
000040 7c d2 20 3e 7d e3 e7 3d c1 08 6b 3e 4a 49 c0 3d
       0.15705293 0.11322687 0.22952558 0.09388979
000050 33 4f 45 bd 01 bf 72 be 3d 4e 28 3e 87 b6 21 3d
       -0.048171233 -0.23705675 0.16436096 0.039480712
000060 78 b3 14 3c 38 96 25 be 5e 87 88 bc b2 14 70 3c
       0.009075992 -0.16170585 -0.01666611 0.014653372
000070 2c 31 01 3e f4 34 81 bc c6 24 45 3e 94 84 86 3e
       0.12616414 -0.01577232 0.19252309 0.26273024
000080 ff a6 88 be 28 88 86 bc 7d c9 89 be 46 87 75 be
       -0.26689908 -0.016422346 -0.26911536 -0.23977384
000090 e9 8c 65 be 60 fd 25 be ef cc 19 be c9 9c b5 bd
       -0.22417034 -0.16209936 -0.15019582 -0.08867795
0000a0 71 24 81 3e 17 09 1c be 2e db cd 3e 97 a2 dd bc
       0.25223115 -0.15237843 0.40206283 -0.027055068
0000b0 c8 40 cb be 02 46 b1 be 64 c5 52 be 75 68 5e be
       -0.39697862 -0.34623724 -0.20583111 -0.21719535
0000c0 7b d1 a5 3e cd 66 37 3e 75 c0 43 3e f7 26 f5 bc
       0.32386383 0.17910309 0.19116385 -0.029925806
0000d0 b1 e5 7e 3e 1f 55 80 3e 79 87 6b 3d c6 8f 7b be
       0.24892308 0.25064942 0.057502244 -0.24566564
0000e0 3d 0f 81 be ba f4 5c 3d e7 42 96 be 43 73 2c be
       -0.25206938 0.053944327 -0.29347917 -0.16840844
0000f0 9d 2a f7 bc a1 e1 8f 3d df b7 8d be 0d c3 54 3e
       -0.030171687 0.07025457 -0.27679345 0.20777531

const_fold_opt__1610 f4 [1, 64, 1]
000000 65 7e f7 ba fb 2a fa bd 3d 00 3e be d0 cb 38 3e
       -0.0018882273 -0.12215229 -0.18554778 0.18046498
000010 f5 8c 60 be db 26 83 be f5 60 6f be 40 77 ab bd
       -0.21928771 -0.25615582 -0.2337683 -0.083723545
000020 76 b2 ff bc 9b 51 b6 3d f6 2a 92 bd b8 38 02 3e
       -0.031213026 0.08902284 -0.071371004 0.12716949
000030 e8 c8 64 be 93 cc ad bd f0 fa ae bd 82 bf 6a be
       -0.22342265 -0.08486285 -0.08543956 -0.22924617
000040 5a c1 49 3d 78 4d d2 be 07 a1 61 bd c0 07 36 be
       0.04925666 -0.4107473 -0.05508521 -0.17776394
000050 ac de 0d 3e 6b f8 af be 5f 21 3a 3e 08 05 b3 3d
       0.13854474 -0.34369215 0.18176793 0.08741194
000060 e6 55 ee 3c b7 a1 1b bd c8 d7 ea bd cc 54 62 be
       0.029093694 -0.03799602 -0.11466938 -0.2210266
000070 f4 b3 06 3e 31 ab 42 bd ef de e5 bd 75 da d3 3c
       0.13154584 -0.047526542 -0.11224162 0.025861004
000080 93 e2 69 be 31 52 43 be 51 7c e8 bd 66 59 4c be
       -0.22840337 -0.19074322 -0.113518365 -0.19955978
000090 eb 46 a5 be f3 03 5d 3d 13 88 b7 be 1f 6a 73 3d
       -0.3228067 0.053958844 -0.35846004 0.059427377
0000a0 1a 6a f1 bc d0 bd c4 bc 5d af 21 be bb cb b0 bd
       -0.029469538 -0.02401629 -0.15789552 -0.086326085
0000b0 2e e5 03 3e 1a da 0b be 76 29 a2 bd 56 94 e5 bd
       0.12880394 -0.13657418 -0.07918064 -0.112099335
0000c0 3c 05 dd bd 07 64 9e 3d 71 0b b9 bc c2 24 9b bc
       -0.10792014 0.077339225 -0.022588464 -0.018938426
0000d0 84 fa 02 3e 26 b7 9e be 8c 12 cf be 7e 09 db 3d
       0.12790877 -0.30999106 -0.40443838 0.1069517
0000e0 a1 93 70 bd e3 ba 59 be b3 fe fe 3d 38 27 85 be
       -0.05873454 -0.21262698 0.12450924 -0.26006484
0000f0 6c 84 9e 3d b7 b5 19 bd e5 56 ec bc 66 40 1d bd
       0.07740101 -0.037526812 -0.028850028 -0.038391493

const_fold_opt__1589 f4 [1, 64, 1]
000000 73 a4 35 be 1a 59 f8 3a cb 9e d5 3c 8a 2a 2c be
       -0.17738514 0.0018947453 0.026076695 -0.16813102
000010 b1 b3 da bc 99 b1 25 3e 05 0d 97 be 5f 40 f8 3c
       -0.026697012 0.1618103 -0.2950212 0.030304132
000020 b3 a5 53 bd d1 f1 93 bd 88 fe 2a 3e d5 8c 74 3d
       -0.051671695 -0.07223857 0.16698658 0.05970462
000030 ce a8 1b be a0 01 98 3d 8b 05 94 bd 82 4e 89 be
       -0.15201113 0.07422185 -0.0722762 -0.2681771
000040 59 70 09 bd 69 41 42 3e a0 57 8c bd f9 2f 14 be
       -0.03355441 0.18970264 -0.06852651 -0.14471425
000050 b1 f2 8a bd fc 68 aa 3d dd d0 2a be 48 f3 29 be
       -0.06784571 0.083208054 -0.16681238 -0.1659671
000060 3e bd 0d be d4 e9 45 be d7 46 14 be 02 0c 97 bd
       -0.13841721 -0.1932748 -0.14480148 -0.07375337
000070 8f 76 18 3e 90 7a 25 be 37 aa 89 3d ee c5 89 be
       0.14888977 -0.16160035 0.06721919 -0.2690882
000080 a9 a4 ae bd 0a 24 ec 3c 53 07 6a bd ea cb c9 3d
       -0.085275 0.028825779 -0.05713589 0.09853347
000090 b7 26 99 bd a9 ba 06 bd 12 4e e3 bd 3f f3 4d 3e
       -0.074780874 -0.032892857 -0.11098875 0.20112322
0000a0 ec d7 a6 bd 3b 81 1b 3d 07 5f 70 bd 07 2d 6b be
       -0.081466526 0.03796504 -0.058684375 -0.22966395
0000b0 87 33 eb bd b4 8b a4 3d c5 f5 22 3d b3 49 25 3e
       -0.114844374 0.08034459 0.039785165 0.16141395
0000c0 2b a3 a1 3d 28 0a 43 3e 2f 98 65 bd b6 b5 8d bd
       0.0789245 0.19046843 -0.056053337 -0.06919424
0000d0 3b 2d 70 3c b3 3f 7c bd 1b ec aa be e4 a7 a5 be
       0.014659221 -0.061584186 -0.3338326 -0.32354653
0000e0 be 7d dc bd c4 db ed bd 9c d3 0f 3c 72 81 5d 3c
       -0.10766171 -0.116141826 0.008778479 0.013519632
0000f0 50 85 d3 3c 8d f3 82 bc 2a c7 a0 3d 58 c9 a3 bd
       0.025820404 -0.015985275 0.078504875 -0.07997388

StatefulPartitionedCall/cnn_bigru_attention_1/td_output_1/Cast_20/ReadVariableOp:0 f4 [8, 1]
000000 3c 76 a1 be 82 9d 50 be 6a e7 3a 3f a8 97 32 bf
       -0.31535518 -0.20372584 0.7300936 -0.6976266
000010 eb b4 53 3b 06 f8 1b 3f 3f b2 93 be 31 e9 9f 3e
       0.003230388 0.6092533 -0.28846928 0.31232598

StatefulPartitionedCall/cnn_bigru_attention_1/td_dense_1/Cast_5/ReadVariableOp:0 f4 [16, 8]
000000 60 96 54 bd 0d 59 cc 3e 15 b3 04 be 2b 38 7d 3e
       -0.05190122 0.3991169 -0.1295894 0.24728458
000010 26 aa 90 be fe 43 78 be d2 fc b5 be f9 78 75 be
       -0.28254813 -0.24244687 -0.3554445 -0.23971929
000020 99 d5 fd 3d 42 6c d3 be fc 6e f9 be 98 9a a1 be
       0.12394256 -0.41293532 -0.48717487 -0.31563258
000030 a3 85 24 3e cf c5 5e be 0d da 49 3e ba 86 9d be
       0.16066603 -0.21755145 0.19712086 -0.3076685
000040 38 0e 00 be 98 82 ad be 4c e1 37 3c 6f f6 20 bd
       -0.12505424 -0.33888698 0.011223149 -0.039297517
000050 55 70 62 3e d7 01 e2 be 9e 5b 8a be 84 75 67 be
       0.22113164 -0.4414203 -0.27023023 -0.22603422
000060 f2 c6 dd 3e 54 db 31 3e 21 95 f2 be d7 15 6b 3e
       0.43315846 0.17368823 -0.473794 0.2295755
000070 60 35 df 3e f2 72 c1 3e 74 6d 2f 3e e7 e4 64 bd
       0.4359541 0.3778301 0.17131597 -0.05588236
000080 7e 0c fc bd 2c 08 9a be e1 a4 04 3f 2a 12 05 be
       -0.1230707 -0.3008436 0.51814085 -0.1299521
000090 9f 19 da be f7 1a a6 be 8b bd be be 55 03 c3 3e
       -0.42597672 -0.32442448 -0.37253985 0.3808848
0000a0 52 c6 78 be 34 b9 a9 3e 35 49 8d be d5 8b af 3e
       -0.24294403 0.3314911 -0.27594915 0.3428637
0000b0 a2 6e ed bd 92 87 82 bd 30 80 dd 3e 49 2a 96 be
       -0.11593367 -0.06373514 0.43261862 -0.29329136
0000c0 19 14 c8 3e 1f 50 97 3e 77 b6 6c 3e d4 c4 e8 be
       0.39077833 0.29553315 0.2311648 -0.45462668
0000d0 5f 1c 0b bf 37 48 6d 3d 25 e0 9d be 47 f3 89 3e
       -0.54340166 0.057930198 -0.3083507 0.26943418
0000e0 04 b6 97 3e 77 51 88 3e 08 2f 93 3d eb f1 23 3c
       0.29631054 0.26624653 0.07186705 0.010006408
0000f0 de f4 e1 be 36 2e dd 3e c0 48 d5 3e c6 9a 1c bf
       -0.4413213 0.4319932 0.41657066 -0.61173666
000100 64 76 b0 3e cd 43 29 be 68 7f c7 3e 5d ca 05 3d
       0.34465325 -0.1652977 0.3896439 0.03266369
000110 0b ae 86 be be d8 ad 3e f0 2f aa 3e 28 9e 25 3f
       -0.2630466 0.33954424 0.33239698 0.6469445
000120 a8 1e a1 3e 61 88 a6 be a2 b3 02 bf df c2 90 3e
       0.314687 -0.32525924 -0.5105535 0.28273675
000130 1c 4e f8 3e d2 a8 98 bd ee 57 83 3d d7 8c a2 be
       0.48497093 -0.07454075 0.06413256 -0.31748077
000140 6e b1 59 3e 71 58 84 3d f5 e0 25 be 65 d4 c8 3d
       0.2125909 0.06462181 -0.16199096 0.09806136
000150 36 96 55 be 0d 4c 68 3e a9 fc a0 3e 87 7a af 3e
       -0.20858082 0.22685261 0.31442764 0.34273168
000160 68 e1 02 3f ab 06 52 3d 9d 2d 05 3d 58 83 a3 3c
       0.5112519 0.05127589 0.032514203 0.01996009
000170 c7 7c ab be 9c 29 80 be d9 51 cb be 89 27 af be
       -0.33493635 -0.25031745 -0.39710882 -0.3420985
000180 0a 81 dc 3e 5d 57 81 3d 69 03 2e 3f 8a 38 52 bd
       0.430672 0.06315491 0.67973953 -0.05132345
000190 8c 35 5a 3e a5 39 1f 3f 91 a8 ae 3e 23 ff 91 3e
       0.21309489 0.62197334 0.3411298 0.28514966
0001a0 4c b0 a1 3d 00 f7 31 3e 63 d5 15 3f e3 bf ad 3e
       0.07894954 0.1737938 0.5852873 0.3393546
0001b0 97 1b 03 bd 6e b3 73 3e 9f 22 8c 3d 57 2c 03 3e
       -0.032008734 0.23798916 0.06842541 0.12809883
0001c0 a4 a5 2c be 79 cc 80 3e 57 1a 16 bf 71 94 1c 3e
       -0.16860062 0.25156 -0.5863394 0.15291001
0001d0 8d 42 de bd 25 8e 86 3e df be 14 3f 5c 2e 8f 3d
       -0.10852537 0.26280323 0.58103746 0.06991264
0001e0 dc 60 11 be a4 0b 72 3e 77 51 08 3f 0f 92 30 3e
       -0.14197105 0.23637253 0.53249305 0.17243217
0001f0 4d 59 9f 3e 8e 62 6f be 13 b9 00 bf 4a 2a ec 3e
       0.3112282 -0.2337744 -0.502824 0.46126014

StatefulPartitionedCall/cnn_bigru_attention_1/td_dense_1/BiasAdd_74/ReadVariableOp:0 f4 [8]
000000 5f e8 9e be 5f 03 cd be 94 d2 51 3e 80 1e 8f bd
       -0.3103666 -0.40041634 0.20490485 -0.06988239
000010 11 ca 38 be bf 36 75 3e 24 02 9c be 11 e4 19 3e
       -0.18045832 0.23946665 -0.30470383 0.15028407

StatefulPartitionedCall/cnn_bigru_attention_1/tcn_cnn_1/residual_block_4_1/conv1D_1_1/convolution/ExpandDims_1:0 f4 [64, 64, 1, 3]
000000 56 33 cd bd e0 cd 41 bd c0 85 16 be 5e c5 08 be
       -0.10019557 -0.04731548 -0.14699459 -0.1335654
000010 30 fb ae bd a2 e9 97 bd e9 f5 cc 3d 52 58 d9 bd
       -0.08544004 -0.07417609 0.10007841 -0.10612549
000020 16 55 06 bd 34 39 85 bc 52 25 e4 3d 0b 9b 40 be
       -0.032795988 -0.016262628 0.11139931 -0.18809144
000030 7d 3b 05 3e 60 cc e8 bd 40 fa f3 bd 7d 71 9b bc
       0.13010974 -0.113671064 -0.11912966 -0.018975014
000040 80 b3 b0 bc 23 41 09 be ca 26 e7 be 2e a7 69 b9
       -0.021569967 -0.13403754 -0.4514678 -0.00022282891
000050 a5 88 a6 bd cd b1 5d be 5c 6b 47 be 73 45 51 bc
       -0.081315316 -0.21649857 -0.19474548 -0.012772906
000060 ad b4 d6 be 42 1e b3 be bd d5 17 be 1d ba 74 3e
       -0.4193472 -0.34984022 -0.14827628 0.23899122
000070 5f 70 41 3d 0a 18 c0 bb 8f 9a bf 3b 8b f9 08 3e
       0.047226306 -0.0058622407 0.0058472822 0.13376443
000080 54 27 e6 3d 77 b0 3b be cf e0 3c bd b8 ea 5a 3e
       0.1123797 -0.18329035 -0.04611283 0.213786
000090 e0 47 46 3d c7 d1 71 3e a1 e7 df 3d 57 e3 a2 3e
       0.04840839 0.2361518 0.109328516 0.31814072
0000a0 8f e2 9f b9 45 34 4b be 74 91 14 bd ab ee 33 bb
       -0.00030495643 -0.19844158 -0.036271527 -0.002745549
0000b0 c5 63 03 bc f1 25 01 3c e3 1b fa bd c0 f2 1d 3d
       -0.008019392 0.007882581 -0.1221235 0.038561583
0000c0 ad 0b c2 3d 78 fe 95 bd 76 8f 98 be 7c 8d bf 3c
       0.09474883 -0.07323927 -0.29796952 0.023382895
0000d0 f9 a5 5d 3d 29 82 41 be 47 16 12 be ba a9 86 3e
       0.054113362 -0.18897308 -0.1426631 0.26301366
0000e0 97 19 6a be ed ac b9 3e 63 41 87 bc fa 00 0c 3d
       -0.22861324 0.36264744 -0.016510671 0.03418062
0000f0 60 ab 05 3e 91 91 a2 3e 79 9d aa bd 5c b6 73 3d
       0.13053656 0.31751683 -0.08330817 0.059500083
000100 c6 02 71 bd a5 85 20 3d 28 08 e1 bd b5 8b 27 bb
       -0.058840536 0.039189953 -0.10987884 -0.002556545
000110 39 83 58 be d5 17 58 3e b9 d8 3e 3e 7d be b7 bd
       -0.21143807 0.21102841 0.1863736 -0.0897188
000120 6b d4 a5 be b1 ee b9 be 0b 3e b1 3d d8 71 03 3e
       -0.32388625 -0.3631492 0.08654412 0.12836397
000130 8c ec ab 3d a9 b2 03 be 2c 14 48 3e e1 36 34 3e
       0.08394727 -0.12861122 0.19538945 0.1759906
000140 e1 12 a0 be ec 9c bf 3d a0 4d 3a 3e aa 3d 9e be
       -0.31264403 0.09356102 0.18193674 -0.3090642
000150 e2 c3 56 bd c4 08 85 be 90 ea 44 bc f3 3c b2 be
       -0.052432902 -0.2598325 -0.012018815 -0.34812126
000160 00 ea ca 3c f8 5b 8f 3d 92 dd 21 3e 2d 25 ca 3d
       0.024769783 0.069999635 0.15807179 0.09870372
000170 7f 52 38 3e 4a c4 10 3e e5 44 3d 3c 90 e3 02 3e
       0.1800022 0.14137378 0.01155207 0.1278212
000180 39 93 67 3e 2b dc 9a 3d 23 d6 14 3e 1a 40 8c 3d
       0.22614755 0.07561525 0.14534812 0.06848164
000190 96 8a 90 be 75 24 33 bc 52 b9 d9 3d a8 3c 98 3d
       -0.28230733 -0.010933985 0.1063105 0.07433444
0001a0 df 22 42 be 18 e8 a1 3e 1a 04 83 3e 6a 35 06 be
       -0.18958615 0.31622386 0.25589067 -0.13106313
0001b0 4e 3b 60 3d 3c f1 3a be ee f3 73 3e 0b 5f c1 bb
       0.054744057 -0.18256086 0.2382352 -0.0059012226
0001c0 6a 39 8d bd e5 50 16 3e 29 5b 49 be bd ff 6b bc
       -0.068957165 0.14679296 -0.19663681 -0.0144042345
0001d0 14 92 9b bc 06 47 21 bd 64 fe 45 3d 3c c8 a5 be
       -0.018990554 -0.039374374 0.04833831 -0.3237933
0001e0 ca 10 1b 3e d5 38 ac bd 50 e3 b7 3d c5 24 15 be
       0.15143123 -0.08409277 0.08978903 -0.14564808
0001f0 6f 7c f5 3d 2a 7b 9f 3e 05 b1 0e 3e 15 cc ab be
       0.119866244 0.31148654 0.13934715 -0.3355414
000200 35 6e 92 bd c6 b7 4e 3e be 89 eb bb b2 bb a1 bb
       -0.071499266 0.20187292 -0.007188051 -0.004935705
000210 6a 27 23 3e a2 d6 e1 bd ab be 3a 3e c5 e5 64 3e
       0.15933004 -0.11027266 0.18236797 0.22353275
000220 4c 39 83 3d 35 07 38 be f7 a2 a3 3d 3e 11 a5 bd
       0.06407413 -0.179715 0.079900675 -0.08059929
000230 9c 82 0e 3e 3c 4c d7 be 81 57 c4 be 96 2e 87 3c
       0.13917011 -0.4205035 -0.3834801 0.016501706
000240 3d e6 5e be 1d cc 0d 3d 5a 40 07 3d 21 8c 02 bf
       -0.21767516 0.034618486 0.033020355 -0.5099507
000250 3c 19 95 3e 8a a7 77 3e 41 3f 03 bd 10 1b ae 3e
       0.29120815 0.24185005 -0.032042746 0.34005022
000260 88 7a 82 bd d3 17 88 bc 9a c9 4b be fd 74 03 bf
       -0.06371027 -0.016612923 -0.19901124 -0.51350385
000270 a1 6c a7 be 10 0c 19 3e 96 fe 09 bd b1 4a c8 bd
       -0.32700065 0.14946008 -0.033690058 -0.09779871
000280 03 f8 85 3d 77 ab 4f 3d df 55 e4 3d 17 54 de 3c
       0.06541445 0.05070063 0.11149191 0.027139707
000290 af 8b 6d be f3 f9 03 3c 7e 57 4e bb d5 f0 69 3e
       -0.23197816 0.008055198 -0.0031485255 0.22845776
0002a0 c0 64 7f 3e 31 80 d1 bd b0 5b f0 bc 8d 64 d3 3c
       0.24940777 -0.10229529 -0.029340595 0.025804782
0002b0 89 28 1c be 8e b6 b1 3d a8 6d b9 3d e6 ce 16 3e
       -0.15249838 0.08677398 0.090541184 0.14727363
0002c0 53 f2 a0 3d aa 83 66 3e 92 ee 3d 3e 02 b9 f2 3e
       0.0785872 0.22511163 0.18548039 0.47406775
0002d0 a3 1e d9 bc 46 ee 23 be 8f d2 42 be c1 4c ad 3b
       -0.026503867 -0.16008863 -0.19025634 0.005288691
0002e0 82 47 1a 3e 3f 02 17 be d4 09 66 3d 30 7c 26 be
       0.1506634 -0.1474695 0.056161717 -0.16258311
0002f0 99 01 83 bd 68 c2 76 be db 55 91 3d bb 60 11 3d
       -0.06396789 -0.24097598 0.07096454 0.03549264
000300 bb c0 70 be c3 a0 96 bd 8a 16 dd 3d 66 04 ff ba
       -0.23511021 -0.073548816 0.107953146 -0.0019456267
000310 02 c5 57 be b0 7c c3 be 8e 43 02 be c0 14 24 bb
       -0.21071246 -0.38181067 -0.12721083 -0.0025036782
000320 62 a7 f7 be 80 a6 de bc 74 d6 29 3b 44 4c f4 3c
       -0.4836989 -0.027179003 0.0025915178 0.029821523
000330 60 1a 8b bd 20 5f c6 3d 62 cd 02 3e 54 6c 3e 3e
       -0.0679214 0.096861124 0.1277366 0.18596011
000340 f6 c4 ef bc 48 e4 9d be e7 30 6a 3d 91 8e f8 bd
       -0.029268723 -0.30838227 0.057175543 -0.121365674
000350 fc 5b f9 3d c0 83 e2 bd 38 2a 1a be 64 1a e5 3d
       0.12175748 -0.110602856 -0.15055168 0.11186674
000360 a5 82 11 3e 1a 14 55 be 2c 4e 80 3d d2 3f 66 3d
       0.14209993 -0.2080845 0.0626491 0.056213208
000370 8c 4e 10 3d a1 61 0e be 90 7a f1 bc 90 f3 0b 3d
       0.035231158 -0.1390443 -0.029477388 0.034167826
000380 29 7e fe be 8d 96 cf bd e9 ae e6 3b c2 5c 6b 3e
       -0.49705628 -0.10136137 0.007039894 0.22984603
000390 3d 12 ca 3d 8c 4e ef 3d cb 94 43 bd 9a c8 22 3e
       0.0986676 0.116849035 -0.047749322 0.15896836
0003a0 14 2b 00 bd fc d8 d5 be 4e 3c 04 be 29 3f 11 bd
       -0.031291083 -0.41767108 -0.1291363 -0.035460625
0003b0 a3 f7 95 bd 9b 07 c6 3d b8 2d 93 bd 89 30 2e bd
       -0.073226236 0.096694194 -0.071864545 -0.042526755
0003c0 98 23 5d 3d 79 aa f1 3c 1d f7 08 bf 21 bc 0d be
       0.053989023 0.029500233 -0.53502065 -0.13841297
0003d0 14 4d 69 3d 71 b0 d2 be 9d 25 77 3d db cc 6e be
       0.056958273 -0.4115024 0.060338605 -0.23320334
0003e0 79 af 8f be 2a b4 8d bd 33 7a 32 bd 22 ae f6 be
       -0.28063563 -0.06919129 -0.04357357 -0.48179728
0003f0 33 fd 9f 3d f3 bd 35 be 97 c4 d0 3c 28 ff bf bd
       0.07811966 -0.17748241 0.025484366 -0.09374839

StatefulPartitionedCall/cnn_bigru_attention_1/tcn_cnn_1/residual_block_4_1/conv1D_0_1/convolution/ExpandDims_1:0 f4 [64, 64, 1, 3]
000000 37 41 bb 3d 1b f2 5b bc d2 a6 a1 3d 02 2b c9 3b
       0.09143298 -0.013424422 0.078931466 0.00613916
000010 e2 c7 dc bc 20 03 b5 3d 88 31 03 bd a2 5b 87 be
       -0.02695078 0.08838487 -0.03202966 -0.26437098
000020 fe 1f 89 3e ba f1 de 3c 99 f1 d2 bd 02 8d 42 bd
       0.2678222 0.027214874 -0.10299987 -0.047497757
000030 fa 2b dd bd 9a e2 85 3e 68 3a 08 be 2a 32 fb bc
       -0.107994035 0.26149446 -0.1330353 -0.030663569
000040 fb f1 83 3e 0a 2c c5 be a1 41 95 3d 5e f1 e0 3d
       0.25770554 -0.38510162 0.07287908 0.10983537
000050 98 a6 8e be 20 31 31 3d f4 05 71 3e 1e 06 fe bd
       -0.27861476 0.04325974 0.23537427 -0.124035105
000060 a8 6c cc bd cf d4 44 bc 12 53 43 3d 9a b4 d7 bd
       -0.09981662 -0.012013628 0.047686644 -0.10532494
000070 bc a6 ee bd 67 7e a9 3d c0 f9 6a be 94 c4 c6 3b
       -0.11652896 0.082760625 -0.22946835 0.0060659144
000080 3d dc 23 3e 7f 2f 8d bd 71 52 00 be 8a 99 55 bd
       0.16001983 -0.06893825 -0.12531449 -0.05214838
000090 ff 3c 13 be 7d ff 50 3e 25 8c 06 be fa cf 36 be
       -0.14378737 0.20409961 -0.13139398 -0.17852774
0000a0 99 be db be ce 7c 88 bd 68 8f 7d 3d 41 14 27 3d
       -0.42918852 -0.066644296 0.06190434 0.0407908
0000b0 dc f9 f2 bd d0 00 1b 3e 78 84 90 bd 92 ea 6c bc
       -0.11864063 0.15137029 -0.070565164 -0.014460223
0000c0 71 6e 4b 3d ff 99 3c 3d 8c 42 0d be 1c d5 22 3d
       0.049665872 0.0460453 -0.13794917 0.03975402
0000d0 d1 c9 97 bd 07 7f 4a bd a4 82 30 3e e5 f1 0d 3b
       -0.0741154 -0.04943755 0.17237335 0.0021659073
0000e0 a2 78 3b 3d 0a 0b 0d be cf f0 d6 3d 52 2d 85 3d
       0.04576934 -0.13773742 0.10495149 0.06502785
0000f0 a8 f7 f3 bd 25 c8 3b bc 13 e5 49 be 49 3d 84 bd
       -0.11912471 -0.011461292 -0.19716291 -0.06457002
000100 cc dc 0f 3d 9d a6 97 3d 64 76 b5 bd be a4 10 3e
       0.035122678 0.07404826 -0.08860472 0.14125344
000110 a5 3b b0 be 1f 57 b9 bb 2c 72 12 ba 3f e6 18 be
       -0.34420505 -0.0056561376 -0.0005586471 -0.14931582
000120 2d d2 6d 3e ca 12 d3 3d ec 6a 8e bd d9 0e 05 3d
       0.23224707 0.10306318 -0.069539875 0.032484863
000130 25 90 3b 3e 9d a1 ef bd cd 22 02 3e 72 11 ba 3d
       0.18316706 -0.11700747 0.12708588 0.09085359
000140 20 98 e6 be 4b 7f 1c bb 00 b2 76 3d 5d 75 d5 bc
       -0.45037937 -0.0023879583 0.060228348 -0.02605694
000150 e2 63 d6 3d 07 57 c1 bd 2f 1a 2c 3e 16 8a 96 bc
       0.1046827 -0.09440427 0.16806863 -0.018376391
000160 e5 43 2c be 3d 22 9f 3e 3c 2e c4 bd d7 26 15 3e
       -0.16822775 0.3108081 -0.09579131 0.14565597
000170 8c e0 7a be 17 34 73 be 85 ef 83 bd ae 6d 75 bc
       -0.2449972 -0.2375034 -0.06442169 -0.014979763
000180 68 d8 ed 3d 9e b0 3a 3d 20 b1 6e 3e 22 83 23 be
       0.11613542 0.04557859 0.23309755 -0.15967992
000190 60 7e ae bd 1e 56 3a 3e bb 63 8b 3d 18 d0 bc bc
       -0.08520198 0.18196914 0.068061315 -0.023048446
0001a0 06 b4 73 be 85 91 1a 3d 89 8e 06 3d 83 bf d1 3c
       -0.23799142 0.037736434 0.032850776 0.025604015
0001b0 72 39 fd bd 12 08 28 be e4 2a d6 bd 9a b2 06 3e
       -0.123644724 -0.16409329 -0.104573995 0.13154069
0001c0 19 fb 70 3b 51 b3 a5 be dc 62 3b 3e 65 d8 fb 3d
       0.003677076 -0.3236337 0.1829943 0.12297133
0001d0 cb 49 86 bd b7 0a f2 3d b1 a3 d9 bd 60 75 d7 3c
       -0.06557044 0.1181845 -0.10626925 0.026301086
0001e0 71 bc 68 3e 37 87 10 be 73 c3 34 3d e5 aa 65 bc
       0.22728135 -0.1411408 0.044131707 -0.014017795
0001f0 a5 6d 0d 3e bc 30 0c be 35 e3 e6 3d ab d3 88 bb
       0.13811357 -0.13690466 0.11273805 -0.0041756234
000200 29 80 3d 3c c4 94 6e bd f5 de 19 3b 90 c9 d3 bc
       0.0115662 -0.058247343 0.002347884 -0.025852948
000210 32 33 d8 bd 06 4a db bc f9 2f b7 be be 37 cb bc
       -0.1055664 -0.026768696 -0.35778788 -0.024806853
000220 b9 3a 50 bd 5c 1a 13 3e f9 ff e1 3c 1c 29 be bb
       -0.050837252 0.14365524 0.027587878 -0.0058032405
000230 d0 c5 11 3e 45 d2 5e be 33 ec ab bd a0 f1 c1 3d
       0.14235616 -0.21759899 -0.08394661 0.094699144
000240 7d b0 3a 3d d3 9f 3e 3d 74 52 ad 3d 94 ff e0 3d
       0.04557847 0.04653914 0.08462992 0.10986248
000250 44 9d 8d bc a9 01 2c 3e 39 44 b0 bd d6 61 72 3e
       -0.017286904 0.16797508 -0.086067624 0.23670134
000260 97 50 50 be 81 eb e0 bd 76 64 f9 3d db 11 ee bd
       -0.20343243 -0.10982419 0.121773645 -0.116244994
000270 32 b7 d5 3c 41 1f 24 be 5a 5a 2e bc bf 05 52 be
       0.02608833 -0.16027547 -0.010641659 -0.20510004
000280 5b ff 06 3e fc 0d da bd c3 39 73 bd 63 cc 02 bd
       0.13183348 -0.106471986 -0.059381258 -0.0319332
000290 d1 75 10 3e ca 75 13 3e fa a4 39 be a2 ef 88 bc
       0.14107443 0.14400402 -0.1812934 -0.016715828
0002a0 8c 53 2c be 18 4c 82 3e 11 da ed be 87 85 0e be
       -0.16828746 0.2544868 -0.46455434 -0.13918124
0002b0 2f 3d d7 bb 55 9b 04 3e d6 78 9a bc d3 ce 8f be
       -0.006568573 0.1294988 -0.018856447 -0.28087482
0002c0 8e 7b 90 bd 32 36 16 bc 73 ed 65 3d c7 7e 91 be
       -0.07054816 -0.009168195 0.056134652 -0.28417036
0002d0 94 55 37 bc aa b5 8d bc 6b 7c 80 3e 33 62 5a 3e
       -0.011189837 -0.017298538 0.25094923 0.21326523
0002e0 57 29 df 3d 01 36 af 3d ba 66 37 3d ff 67 19 be
       0.10896557 0.08555222 0.044775702 -0.14981078
0002f0 71 b5 82 3d c0 1f 5c bd 01 42 22 be 35 e2 92 3d
       0.063822635 -0.053741217 -0.15845491 0.07172052
000300 0e 19 1c be 06 59 05 be 80 e6 cc bc fd 5c a4 bd
       -0.15243933 -0.13022241 -0.025012255 -0.080255486
000310 eb 61 12 be e4 b5 6e 3d b9 9d 1f 3d f8 a9 4b 3e
       -0.14295165 0.058278933 0.038968775 0.19889057
000320 c5 3b 91 3d 88 c9 85 3d 72 ce 57 3e e0 72 44 be
       0.07091478 0.0653258 0.21074846 -0.19184446
000330 ee 3c 06 3d 74 f6 19 be fb aa dd 3d 77 5b 37 3e
       0.03277295 -0.1503542 0.108236276 0.17905985
000340 e4 1a 2d 3e 53 8e 82 be 37 05 4d be 19 93 cb bd
       0.16904789 -0.2549921 -0.2002152 -0.09940166
000350 9d 18 db 3d 98 9f 34 be a5 5a 99 bc 20 50 69 3e
       0.10698054 -0.17639005 -0.01871998 0.22784472
000360 47 ef 2a be 18 da d4 3c 37 0a 78 3e f4 8a 0d be
       -0.1669284 0.025982901 0.24222647 -0.13822538
000370 3b f4 f5 bd 52 a8 a3 be ea ca 52 3e 62 b5 7d 3e
       -0.12009474 -0.31964356 0.20585218 0.24776223
000380 2d 9c a9 3c 86 22 9a 3e fb cc a4 3c 24 6f 7a bd
       0.020704353 0.30104464 0.020117274 -0.06114115
000390 65 aa 2b 3d 0d 43 5b 3e f1 59 94 3d c4 51 81 3e
       0.041910548 0.21412297 0.072437175 0.25257695
0003a0 00 5d 81 3e f5 08 e4 3d c4 b4 f9 bd 30 15 9e bd
       0.25266266 0.11134521 -0.121926814 -0.07718885
0003b0 19 14 21 3e 73 8d 4f 3d 49 37 ed 3d df 48 09 be
       0.15730323 0.050672006 0.115828104 -0.13406704
0003c0 f3 9f 85 bd d6 8a 57 bd df 52 b5 3d cc f7 e8 bd
       -0.065246485 -0.05262264 0.08853697 -0.113753885
0003d0 52 8c d1 bd 00 a0 48 bd d3 2e 3a bc bd 11 24 bd
       -0.10231842 -0.048980713 -0.011363703 -0.04005598
0003e0 6a 7e 01 3d 17 64 25 3d 53 ad a5 bd f6 bd 30 3d
       0.0316147 0.040378656 -0.080896996 0.04314991
0003f0 95 29 fa bd 26 68 7d bd c5 9c 5e bd d8 45 61 3e
       -0.122149624 -0.0618669 -0.054348726 0.219993

StatefulPartitionedCall/cnn_bigru_attention_1/tcn_cnn_1/residual_block_3_1/conv1D_1_1/convolution/ExpandDims_1:0 f4 [64, 64, 1, 3]
000000 48 22 e0 be 54 94 b6 be cc 7b 52 3e 5c 2c 22 bd
       -0.43776155 -0.3566004 0.20555037 -0.039593086
000010 1c 21 04 bc 3d e2 47 3d 7c 00 d9 3d e3 96 00 bd
       -0.0080645345 0.048799742 0.105957955 -0.031393897
000020 9f 19 35 3c ed fb 18 3c 1f 78 1e bd 7d 4f 20 3e
       0.011053472 0.009337408 -0.038688775 0.15655322
000030 22 80 91 bd 73 33 ac bd a7 fa b7 3d a7 80 65 be
       -0.071045175 -0.08408251 0.08983355 -0.22412358
000040 a5 3d 59 3d 20 32 87 3e 73 98 a0 3d fc 7e 87 be
       0.053037304 0.2640543 0.078415774 -0.2646407
000050 90 5d 82 be 1d a4 cf bd fe 70 b7 3e c5 92 b7 3c
       -0.25462008 -0.10138724 0.35828394 0.022408852
000060 43 44 86 be 88 58 74 3e 62 1f 42 3d 88 7c 8e 3d
       -0.26223955 0.23861897 0.04739321 0.06957346
000070 9a 49 1a be 50 10 cd be ee 88 e2 3e 97 4e 0f 3e
       -0.1506714 -0.40051508 0.44245094 0.13994823
000080 2c 7e 83 3e fe 7c 25 3d 71 9a 18 be cf 81 37 be
       0.256822 0.040402405 -0.14902665 -0.17920612
000090 af 9b 66 bd b2 9f 23 be ca 42 5a be 5d 61 80 be
       -0.056300815 -0.15978888 -0.2131454 -0.25074282
0000a0 73 96 d3 bd 80 73 a9 3c 2a e0 51 3d 73 b8 83 be
       -0.1033143 0.020684958 0.05123917 -0.2572666
0000b0 12 97 aa bd bf 57 8a 3c 79 3a 04 be 70 d4 4f 3e
       -0.083295956 0.016887544 -0.1291293 0.20295882
0000c0 a6 17 15 bd 16 41 39 3d eb e5 90 be 2b 43 18 bc
       -0.036399506 0.045228086 -0.28300413 -0.009293358
0000d0 d9 2c 67 be 66 cf 29 3e 0d fe a1 bc 2a e0 79 be
       -0.22575702 0.16583022 -0.019774461 -0.24401918
0000e0 df c2 5b 3e 63 63 37 bd 87 7c db 3d bb 41 1b 3d
       0.21461056 -0.044772517 0.10717111 0.037904482
0000f0 7b ee 35 3e 6a df 6f be a4 85 40 bd d5 1b 9b bd
       0.17766754 -0.2342507 -0.04700245 -0.07573668
000100 39 c9 6a bd 16 c1 84 be 42 3d fc bd db e6 74 be
       -0.057320807 -0.25928563 -0.123163715 -0.2391619
000110 0a 75 24 be 32 de 3f be a0 c0 04 3c 1e 41 a7 3d
       -0.16060272 -0.18737105 0.008102566 0.08166717
000120 c8 ba 81 bc fd dc 43 be be 59 26 be 5e f6 c1 bd
       -0.015836135 -0.19127269 -0.16245171 -0.09470819
000130 f6 ca d1 3d e3 83 05 be 3b 2d 0f 3e 5b 48 03 3e
       0.1024379 -0.13038592 0.13982098 0.1282057
000140 40 34 2d 3e 8e 22 b4 3d cb 8a 58 bd e9 28 8a 3e
       0.16914463 0.08795653 -0.05286674 0.26984337
000150 1d 71 03 3e 2a a9 6c 3e 0e d2 ad 3d 0e a7 be be
       0.12836118 0.23111406 0.084873304 -0.37236828
000160 d5 47 4d bd 2e 6d 52 be c8 b7 8e bd 11 0f ef bd
       -0.050117332 -0.20549461 -0.06968647 -0.116727956
000170 96 42 23 be 3f 1d 0a 3e 39 29 06 3d a6 e0 0d bd
       -0.1594337 0.13487719 0.032754157 -0.03463807
000180 7e 8c b7 3d d4 13 6e be 84 fd 57 3e f7 15 39 3d
       0.08962344 -0.23249751 0.21092802 0.045186963
000190 e2 84 d6 be ba d1 a8 be 88 16 11 be 23 ad 1b be
       -0.41898257 -0.3297251 -0.14168751 -0.15202765
0001a0 7c c6 0d 3e d7 92 c8 bd 3d f7 95 be 48 28 75 be
       0.13845247 -0.097936325 -0.2929019 -0.23941147
0001b0 82 2d cb 3d e4 e5 4a bc 81 2e 2c bc a6 f4 af 3c
       0.09920789 -0.012383912 -0.010509134 0.021478962
0001c0 2c 82 3f be 5b 2c 11 bc 97 d2 93 be 01 2a 42 be
       -0.18702 -0.008860673 -0.28871605 -0.18961336
0001d0 cb ba 71 3e 00 25 0c bf cc 68 8f bb 20 0c d1 3d
       0.23606412 -0.5474396 -0.0043765064 0.10207391
0001e0 28 df db bc 2f 38 83 bd 3a 08 34 be 3f 35 38 3e
       -0.026839808 -0.064072005 -0.17581263 0.17989062
0001f0 89 39 86 bd 9e ec c4 bd e4 fd 3a be 17 38 d3 be
       -0.06553943 -0.09615444 -0.18260914 -0.4125373
000200 6d 75 7b 3d 1d cc b2 3c 54 4e 8e be d3 b1 6a 3e
       0.061391283 0.021825844 -0.27794135 0.22919397
000210 7b 13 b2 3d f2 6c ab 3b 27 51 ba bd fb de 86 bd
       0.08695122 0.005231493 -0.0909751 -0.06585499
000220 93 31 5c bd 8e 16 ba bd 72 42 94 3d ab ef e8 be
       -0.053758215 -0.09086333 0.07239236 -0.45495352
000230 af 5b 12 be 2f b3 45 bd d5 00 c2 3d bf 64 b2 3d
       -0.14292787 -0.048266586 0.09472815 0.08710622
000240 43 25 c4 bd 1e ee 82 3e 53 83 ac be 81 c6 9a 3e
       -0.095774196 0.25572294 -0.33693942 0.3022957
000250 21 1f ef 3d 9b f7 5b 3e 6b c0 f4 bc 8e df 05 3d
       0.11675859 0.21481173 -0.029876908 0.0326839
000260 d8 dd 83 3e 1c 01 09 3e d0 25 31 bd 73 fe 92 be
       0.2575519 0.1337933 -0.04324895 -0.28709754
000270 ae 9d bd bd c9 0e 90 bc fd ee 83 be 3c 01 00 3d
       -0.09258591 -0.017585175 -0.2576827 0.031251177
000280 7b 7c f2 bc 92 d3 49 3e 33 66 f2 bd 4f 17 21 3e
       -0.029600373 0.19709614 -0.11835899 0.15731548
000290 b8 08 d1 3b 56 f2 55 3e 45 10 0c 3e fa 11 81 3e
       0.006379213 0.20893225 0.13678081 0.25209028
0002a0 8b ab db bd 9a b0 19 bc 20 a2 0e bc 7d bd 18 3e
       -0.107260786 -0.009380484 -0.008705646 0.14916034
0002b0 ee ad b6 be 12 8d a2 be a5 c6 5b 3e fa a0 8b 3e
       -0.35679573 -0.31748253 0.21462496 0.27271253
0002c0 09 87 b7 bd 3a 19 00 3c 0b d0 20 be 3b 16 aa 3d
       -0.08961303 0.0078185145 -0.15704362 0.083050214
0002d0 f7 f4 01 3d fd f4 a2 be ee 20 a2 3d 2f 13 bc bd
       0.031727757 -0.31827536 0.07916437 -0.091833465
0002e0 c5 f0 87 bd 28 4e 8d bd 81 99 50 3b 7d ba 41 3e
       -0.0663772 -0.06899673 0.0031829777 0.18918796
0002f0 5b 4b e8 bd 22 51 7e bd c3 0f 1c be fc 79 25 bd
       -0.11342498 -0.062089093 -0.15240388 -0.040399536
000300 22 89 63 be 86 85 ca be 81 a6 3c 3e 2b 51 d2 3c
       -0.22220281 -0.39554995 0.18422891 0.02567347
000310 86 b1 06 bd 02 29 4f be 51 93 bc bb 94 40 43 be
       -0.032884143 -0.20230487 -0.005754866 -0.19067603
000320 21 8d 52 be 77 0e 7c be 55 f3 83 be fa ff c3 bd
       -0.20561649 -0.24614893 -0.25771585 -0.09570308
000330 ed 6a 8e bd 75 86 3c 3e db e4 f5 bd 9b ba 6f be
       -0.06953988 0.18410666 -0.12006541 -0.23411028
000340 cb 20 15 bd 1b c1 76 3d f9 78 06 3e cf 05 d7 bd
       -0.036408227 0.060242753 0.13132085 -0.10499155
000350 d8 7b bf bd 05 57 0f be fa ba 3e be 11 e8 94 be
       -0.09349793 -0.13998039 -0.18626013 -0.29083303
000360 29 c4 99 be 75 a2 a8 bd 99 fd 9b 3d b3 2a 19 be
       -0.3003247 -0.08234111 0.07616729 -0.14957695
000370 98 6c b5 be 12 62 10 bf 66 fa 5b be fd fd 33 be
       -0.35434413 -0.56399643 -0.21482238 -0.17577358
000380 4c b1 1f 3e 7b ce 77 3d 45 b6 ac be 7d 68 f2 bd
       0.15594977 0.06049965 -0.3373281 -0.11836336
000390 6f a6 77 3e af ef 10 3e 69 3c a8 3d 51 21 77 be
       0.24184583 0.14153932 0.08214647 -0.24133803
0003a0 26 68 82 bd 65 a2 81 3c 6d c4 48 3d bd 66 bd be
       -0.06367521 0.015824506 0.04901545 -0.36992446
0003b0 4a 1a 77 3d 18 3f 25 be fc 95 6c be 1f 90 54 3e
       0.060327806 -0.1613735 -0.2310409 0.20758103
0003c0 9e fc 25 3d 9a c6 8c 3d 24 92 19 bf 88 d8 9b be
       0.040524118 0.06873818 -0.5998862 -0.30438638
0003d0 a1 28 e9 bd b8 5e a6 3d ec 99 43 be 60 d8 c5 be
       -0.113847025 0.08123535 -0.19101685 -0.38641644
0003e0 d2 5b e3 be fe d1 2f be ea 61 da 3d 55 2d b5 3d
       -0.4440599 -0.1716995 0.10663207 0.08846537
0003f0 99 63 4e 3d 0e 50 16 be b5 c2 f0 bd f6 84 8c 3d
       0.050387952 -0.14678976 -0.117558874 0.06861298
